…
      "execution_count": 6,
      "outputs": [
        {
          "output_type": "stream",
          "text": [
            "Model: \"model\"\n",
            "_________________________________________________________________\n",
            "Layer (type)                 Output Shape              Param #   \n",
            "=================================================================\n",
            "input_1 (InputLayer)         [(None, 28, 28, 1)]       0         \n",
            "_________________________________________________________________\n",
            "conv2d (Conv2D)              (None, 28, 28, 16)        160       \n",
            "_________________________________________________________________\n",
            "max_pooling2d (MaxPooling2D) (None, 14, 14, 16)        0         \n",
            "_________________________________________________________________\n",
            "conv2d_1 (Conv2D)            (None, 14, 14, 8)         1160      \n",
            "_________________________________________________________________\n",
            "max_pooling2d_1 (MaxPooling2 (None, 7, 7, 8)           0         \n",
            "_________________________________________________________________\n",
            "conv2d_2 (Conv2D)            (None, 7, 7, 8)           584       \n",
            "_________________________________________________________________\n",
            "max_pooling2d_2 (MaxPooling2 (None, 4, 4, 8)           0         \n",
            "_________________________________________________________________\n",
            "conv2d_3 (Conv2D)            (None, 4, 4, 8)           584       \n",
            "_________________________________________________________________\n",
            "up_sampling2d (UpSampling2D) (None, 8, 8, 8)           0         \n",
            "_________________________________________________________________\n",
            "conv2d_4 (Conv2D)            (None, 8, 8, 8)           584       \n",
            "_________________________________________________________________\n",
            "up_sampling2d_1 (UpSampling2 (None, 16, 16, 8)         0         \n",
            "_________________________________________________________________\n",
            "conv2d_5 (Conv2D)            (None, 14, 14, 16)        1168      \n",
            "_________________________________________________________________\n",
            "up_sampling2d_2 (UpSampling2 (None, 28, 28, 16)        0         \n",
            "_________________________________________________________________\n",
            "conv2d_6 (Conv2D)            (None, 28, 28, 1)         145       \n",
            "=================================================================\n",
            "Total params: 4,385\n",
            "Trainable params: 4,385\n",
            "Non-trainable params: 0\n",
            "_________________________________________________________________\n"
          ],
          "name": "stdout"
        }
      ]
    },
    {
      "cell_type": "code",
      "metadata": {
…
          ],
          "name": "stderr"
        },
        {
          "output_type": "stream",
          "text": [
            "Model: \"model_1\"\n",
            "_________________________________________________________________\n",
            "Layer (type)                 Output Shape              Param #   \n",
            "=================================================================\n",
            "input_2 (InputLayer)         [(None, 28, 28, 1)]       0         \n",
            "_________________________________________________________________\n",
            "conv2d_7 (Conv2D)            (None, 28, 28, 16)        416       \n",
            "_________________________________________________________________\n",
            "batch_normalization (BatchNo (None, 28, 28, 16)        64        \n",
            "_________________________________________________________________\n",
            "max_pooling2d_3 (MaxPooling2 (None, 14, 14, 16)        0         \n",
            "_________________________________________________________________\n",
            "conv2d_8 (Conv2D)            (None, 14, 14, 8)         3208      \n",
            "_________________________________________________________________\n",
            "batch_normalization_1 (Batch (None, 14, 14, 8)         32        \n",
            "_________________________________________________________________\n",
            "max_pooling2d_4 (MaxPooling2 (None, 7, 7, 8)           0         \n",
            "_________________________________________________________________\n",
            "conv2d_9 (Conv2D)            (None, 7, 7, 8)           1608      \n",
            "_________________________________________________________________\n",
            "batch_normalization_2 (Batch (None, 7, 7, 8)           32        \n",
            "_________________________________________________________________\n",
            "max_pooling2d_5 (MaxPooling2 (None, 4, 4, 8)           0         \n",
            "_________________________________________________________________\n",
            "conv2d_10 (Conv2D)           (None, 4, 4, 8)           1608      \n",
            "_________________________________________________________________\n",
            "up_sampling2d_3 (UpSampling2 (None, 8, 8, 8)           0         \n",
            "_________________________________________________________________\n",
            "conv2d_11 (Conv2D)           (None, 8, 8, 8)           1608      \n",
            "_________________________________________________________________\n",
            "up_sampling2d_4 (UpSampling2 (None, 16, 16, 8)         0         \n",
            "_________________________________________________________________\n",
            "conv2d_12 (Conv2D)           (None, 14, 14, 16)        1168      \n",
            "_________________________________________________________________\n",
            "up_sampling2d_5 (UpSampling2 (None, 28, 28, 16)        0         \n",
            "_________________________________________________________________\n",
            "conv2d_13 (Conv2D)           (None, 28, 28, 1)         145       \n",
            "=================================================================\n",
            "Total params: 9,889\n",
            "Trainable params: 9,825\n",
            "Non-trainable params: 64\n",
            "_________________________________________________________________\n"
          ],
          "name": "stdout"
        }
      ]
    },
    {
      "cell_type": "code",
      "metadata": {
…
        "    autoencoder.compile(optimizer='adam', loss='mean_squared_error')\n",
        "    return autoencoder\n",
        "autoencoder_CNN_Complex = build_autoencoder()\n",
        "autoencoder_CNN_Complex.summary()\n"
      ],
      "execution_count": 34,
      "outputs": [
        {
          "output_type": "stream",
          "text": [
            "Model: \"model_1\"\n",
            "_________________________________________________________________\n",
            "Layer (type)                 Output Shape              Param #   \n",
            "=================================================================\n",
            "image_input (InputLayer)     (None, 420, 540, 1)       0         \n",
            "_________________________________________________________________\n",
            "conv2d_1 (Conv2D)            (None, 420, 540, 32)      320       \n",
            "_________________________________________________________________\n",
            "batch_normalization_1 (Batch (None, 420, 540, 32)      128       \n",
            "_________________________________________________________________\n",
            "max_pooling2d_1 (MaxPooling2 (None, 210, 270, 32)      0         \n",
            "_________________________________________________________________\n",
            "conv2d_2 (Conv2D)            (None, 210, 270, 64)      18496     \n",
            "_________________________________________________________________\n",
            "batch_normalization_2 (Batch (None, 210, 270, 64)      256       \n",
            "_________________________________________________________________\n",
            "max_pooling2d_2 (MaxPooling2 (None, 105, 135, 64)      0         \n",
            "_________________________________________________________________\n",
            "conv2d_3 (Conv2D)            (None, 105, 135, 64)      36928     \n",
            "_________________________________________________________________\n",
            "up_sampling2d_1 (UpSampling2 (None, 210, 270, 64)      0         \n",
            "_________________________________________________________________\n",
            "conv2d_4 (Conv2D)            (None, 210, 270, 32)      18464     \n",
            "_________________________________________________________________\n",
            "up_sampling2d_2 (UpSampling2 (None, 420, 540, 32)      0         \n",
            "_________________________________________________________________\n",
            "conv2d_5 (Conv2D)            (None, 420, 540, 1)       289       \n",
            "=================================================================\n",
            "Total params: 74,881\n",
            "Trainable params: 74,689\n",
            "Non-trainable params: 192\n",
            "_________________________________________________________________\n"
          ],
          "name": "stdout"
        }
      ]
    },
    {
      "cell_type": "code",
      "metadata": {
…
